compression.pth (torch, 41065 bytes, 45 tensors)

weight f4 [3, 1, 3]
-0.3047456 -0.049559217 -0.23563188 1.1632705 0.7836676 0.9705716 0.89048856 -0.34090587
-0.99673164
00000000: 9e07 9cbe 9bfe 4abd 7c49 71be 0ce6 943f
00000010: 719e 483f 6177 783f 0ff7 633f 378b aebe
00000020: ce29 7fbf

bias f4 [3]
-0.16147903 -0.4802902 -0.7724159
00000000: c25a 25be 99e8 f5be 0cbd 45bf

weight f4 [3, 3, 3]
-0.29191825 -0.6227566 -0.19754723 -0.14418897 -0.5611055 -0.5205395 -0.7242773 -0.39205384
-0.47196725 -0.06625209 -0.30956763 -0.42380017 0.08428308 -0.38576442 0.035061624 -0.83814657
-0.4948039 -0.37153035 0.0554967 0.050633572 0.16567872 0.2873454 0.15399975 -0.108561315
0.5749063 0.4402709 0.31289393
00000000: 4f76 95be fa6c 1fbf d249 4abe 46a6 13be
00000010: 9ca4 0fbf 1442 05bf 3d6a 39bf 48bb c8be
00000020: b1a5 f1be 2daf 87bd a67f 9ebe 56fc d8be
00000030: 9c9c ac3d ea82 c5be c79c 0f3d c690 56bf
00000040: f056 fdbe 3a39 bebe 8250 633d 2665 4f3d
00000050: afa7 293e f01e 933e 1cb2 1d3e 6555 debd
00000060: 0f2d 133f 306b e13e a233 a03e

bias f4 [3]
-0.41078627 -0.18037155 0.7227434
00000000: 9452 d2be 52b3 38be b605 393f

weight f4 [3, 3, 3]
0.12014486 -0.24197806 0.13664337 0.19663824 0.47746515 0.53231686 -0.79149544 -0.5789165
-0.5656731 0.5759262 0.18534927 0.3590458 -0.15229928 -0.6107712 -0.4124949 -0.19463798
0.12161907 -0.42000526 0.24742244 0.31375 0.7964861 -0.041979533 -0.03948747 -0.34019676
-0.25681865 -0.33168542 0.04480209
00000000: 820e f63d 19c9 77be 3dec 0b3e 895b 493e
00000010: 5076 f43e eb45 083f 729f 4abf df33 14bf
00000020: f4cf 10bf e66f 133f 33cc 3d3e dad4 b73e
00000030: 58f4 1bbe 805b 1cbf 8832 d3be 2e4f 47be
00000040: 6b13 f93d ee0a d7be 4f5c 7d3e d7a3 a03e
00000050: 83e6 4b3f bbf2 2bbd 9dbd 21bd 452e aebe
00000060: bc7d 83be acd2 a9be 6582 373d

bias f4 [3]
-0.5015257 0.31666777 0.046547778
00000000: fd63 00bf 4722 a23e e2a8 3e3d

weight f4 [1, 3, 3]
0.1261175 0.28338152 0.6637931 -0.09310661 0.11462538 -0.49208564 0.25415173 0.3123303
0.36124098
00000000: f224 013e 6217 913e 58ee 293f aeae bebd
00000010: b6c0 ea3d a6f2 fbbe 2d20 823e c2e9 9f3e
00000020: 94f4 b83e

weight f4 [3, 3, 5]
-0.4698333 -0.65363824 -0.44439396 -0.72202605 -0.33359215 -0.8264239 -0.8146478 -0.5054413
-0.46907207 -0.57265955 0.35990915 0.6011938 0.49352476 0.36953884 0.64312184 -0.43491462
-0.39890057 -0.60987526 -0.53348327 -0.31230357 -0.16061825 -0.22541904 -0.39581266 -0.14987615
-0.23270474 0.6513591 0.5329083 0.66319215 0.56430405 0.54246294 -0.23550272 -0.46336883
-0.22072595 -0.4473513 -0.23307873 -0.19184193 -0.18508047 -0.33750495 0.124711946 0.11144029
0.63844514 0.5934478 0.60005474 0.23967671 0.4912768
00000000: fe8d f0be d654 27bf 9b87 e3be b3d6 38bf
00000010: 97cc aabe 8490 53bf c28c 50bf 9a64 01bf
00000020: 372a f0be d199 12bf 0346 b83e d6e7 193f
00000030: 47af fc3e 3234 bd3e a2a3 243f 21ad debe
00000040: b23c ccbe c920 1cbf 5c92 08bf 41e6 9fbe
00000050: 1c79 24be 40d4 66be f5a7 cabe 2279 19be
00000060: 274a 6ebe 78bf 263f ae6c 083f f6c6 293f
00000070: 3b76 103f dade 0a3f a027 71be ae3e edbe
00000080: fc05 62be 3b0b e5be 31ac 6ebe 3672 44be
00000090: bc85 3dbe 73cd acbe fa68 ff3d cf3a e43d
000000a0: 2471 233f 32ec 173f 309d 193f d06d 753e
000000b0: a288 fb3e

bias f4 [3]
0.20041992 0.07080265 -0.02993679
00000000: e13a 4d3e fb00 913d 003e f5bc

weight f4 [1, 3, 5]
0.40892577 0.55611956 0.40363753 0.63131464 0.51136345 0.31283993 0.3634334 0.52630526
0.37708673 0.26287004 0.26970094 0.20604283 -0.03849328 0.33663088 0.2559323
00000000: b85e d13e da5d 0e3f 94a9 ce3e d69d 213f
00000010: b7e8 023f 8e2c a03e f113 ba3e f1bb 063f
00000020: 8311 c13e e796 863e 3e16 8a3e e4fc 523e
00000030: 21ab 1dbd e25a ac3e 8f09 833e

weight f4 [3, 3, 7]
0.4019091 0.3185255 0.7449399 0.31791434 -0.23868065 -0.2256104 -0.04791087 -0.21590015
-0.37083477 -0.40764448 -0.46199378 -0.14545362 -0.25829998 0.013975153 -0.059603266 0.055439826
-0.029813472 0.18368007 0.03150619 0.07686646 0.53133214 -0.5785805 -0.34962302 -0.352464
-0.20637916 -0.4074198 -0.4238907 -0.39900634 0.13290866 -0.10593477 -0.07321993 -0.012855337
0.004128203 0.05687315 0.362676 0.57328695 0.3140794 -0.08931892 -0.14973746 -0.20625679
-0.33520338 -0.13160738 -0.45018634 -0.09037574 -0.38891384 -0.103583485 -0.071775064 -0.2966779
-0.08599483 0.62407637 0.37099403 0.5511424 0.48478478 0.5063913 0.63216037 0.7701319
0.059904274 0.508506 0.1254707 0.15637012 0.14894024 -0.039502542 -0.33484557
00000000: 08c7 cd3e c615 a33e 62b4 3e3f abc5 a23e
00000010: b368 74be 6a06 67be 303e 44bd ee14 5dbe
00000020: 0ede bdbe c7b6 d0be 738a ecbe cbf1 14be
00000030: e53f 84be 0af8 643c 8e22 74bd df14 633d
00000040: 623b f4bc a116 3c3e a20c 013d 2a6c 9d3d
00000050: 6205 083f da1d 14bf ca01 b3be 2976 b4be
00000060: 0f55 53be 5499 d0be 3408 d9be 8f4a ccbe
00000070: 3519 083e 54f4 d8bd 55f4 95bd 319f 52bc
00000080: e045 873b d2f3 683d abb0 b93e efc2 123f
00000090: 04cf a03e d7ec b6bd c754 19be fb34 53be
000000a0: c79f abbe 16c4 06be d37e e6be ea16 b9bd
000000b0: b71f c7be 9423 d4bd cefe 92bd 2ae6 97be
000000c0: 0f1e b0bd 78c3 1f3f eef2 bd3e ab17 0d3f
000000d0: b635 f83e dca2 013f 43d5 213f 5d27 453f
000000e0: 2f5e 753d 732d 023f 647b 003e 7d1f 203e
000000f0: ca83 183e 6bcd 21bd e170 abbe

bias f4 [3]
-0.4103529 -0.26281148 -0.19937819
00000000: c619 d2be 3a8f 86be cc29 4cbe

weight f4 [3, 3, 3]
-0.35749602 -0.4079964 -0.61665976 0.77588004 0.52299356 0.61944705 0.30352455 0.2684724
-0.22229801 0.15713522 0.17675048 0.10113303 -1.624828 -1.3546704 -1.4079504 -0.97700214
-0.42735434 -0.76051456 0.2932395 0.1775825 -0.3198702 -1.258447 -0.8889481 -0.9744892
-1.0592064 -0.39696094 -0.74600714
00000000: b809 b7be e7e4 d0be 6add 1dbf 13a0 463f
00000010: e8e2 053f 1594 1e3f 9267 9b3e 3775 893e
00000020: 17a2 63be 0ee8 203e 14fe 343e d61e cf3d
00000030: 5dfa cfbf d765 adbf b837 b4bf d01c 7abf
00000040: 30ce dabe 15b1 42bf 7d23 963e 30d8 353e
00000050: 07c6 a3be cb14 a1bf 1a92 63bf 2078 79bf
00000060: 1394 87bf 773e cbbe 53fa 3ebf

bias f4 [3]
-0.012013276 0.28762257 0.31160527
00000000: 55d3 44bc 4443 933e ba8a 9f3e

weight f4 [1, 3, 3]
0.048814934 0.22592628 0.16740762 -0.98396695 -0.42330366 -0.71929604 -0.6187648 -0.5762506
-0.2938102
00000000: 2bf2 473d 3859 673e e76c 2b3e 42e5 7bbf
00000010: 42bb d8be c923 38bf 5f67 1ebf 2985 13bf
00000020: 4a6e 96be

weight f4 [3, 3, 5]
0.30661944 0.28498724 0.14307114 0.023420945 -0.4158976 -0.57036686 -0.3608874 -0.4171241
-0.7972125 -1.0942225 0.3689421 0.3131148 0.024569087 0.4001798 0.513666 0.02645789
0.12297989 0.21669741 0.026900284 -0.08082756 0.5446694 0.5388123 0.34860364 0.17772411
0.46587852 0.7515252 0.79294664 1.0331144 0.9589386 0.8663446 -0.46012893 -0.27334592
-0.2339021 -0.5393068 -0.15231733 0.2908129 0.2712103 0.27966827 0.34945425 0.28672415
0.009031329 -0.26125076 -0.16362073 -0.21445446 -0.10805792
00000000: 39fd 9c3e d9e9 913e 3e81 123e 48dd bf3c
00000010: 88f0 d4be 9003 12bf 3cc6 b8be 4a91 d5be
00000020: 1e16 4cbf 7c0f 8cbf fbe5 bc3e 9550 a03e
00000030: 1c45 c93c 5ee4 cc3e 9d7f 033f 38be d83c
00000040: e1dc fb3d ede5 5d3e fc5d dc3c eb88 a5bd
00000050: 746f 0b3f 9aef 093f 2d7c b23e 4ffd 353e
00000060: a187 ee3e f563 403f 8dfe 4a3f 183d 843f
00000070: 007d 753f c2c8 5d3f 0596 ebbe fff3 8bbe
00000080: 0884 6fbe 0310 0abf 13f9 1bbe 6ee5 943e
00000090: 14dc 8a3e ae30 8f3e abeb b23e 82cd 923e
000000a0: 24f8 133c a9c2 85be 318c 27be f399 5bbe
000000b0: 794d ddbd

bias f4 [3]
0.21231414 -0.23961717 -0.16270122
00000000: e168 593e 345e 75be 269b 26be

weight f4 [1, 3, 5]
-0.21161965 -0.49855232 -0.37221977 -0.35942563 -0.04739788 0.6555917 0.8731308 0.77087086
0.77122736 0.74133444 0.19671936 0.13151188 0.24291492 0.17566071 -0.10058474
00000000: d2b2 58be 4042 ffbe 9793 bebe a306 b8be
00000010: 4824 42bd dcd4 273f 8085 5f3f cb57 453f
00000020: 286f 453f 18c8 3d3f cd70 493e 0dab 063e
00000030: b0be 783e 67e0 333e 5fff cdbd

weight f4 [3, 3, 7]
0.3986531 0.44064248 0.3922833 0.27786997 0.048736945 -0.03058985 -0.3367528 -0.2723653
-0.47410843 -0.22086596 -0.21875457 -0.27277803 -0.4371693 -0.36747006 -1.4483293 -2.0952797
-1.8686264 -1.5292782 -1.803587 -1.8145394 -0.9295127 0.6095618 0.68748283 0.5556127
0.49652413 0.49200368 0.45721298 0.5391426 0.39875168 0.36815953 0.37619048 0.68143827
0.56841606 0.34805796 0.37995356 0.57055277 1.0406995 0.7097832 0.9300878 0.4581992
0.020526666 0.3479323 1.0084865 0.66578865 0.6045917 0.8917434 0.8204901 0.79290676
0.64631635 0.46255022 0.47823563 0.2772599 0.29158366 0.2984694 0.5555735 0.21983017
0.15457913 0.34155902 1.305724 1.7491976 1.5256255 1.4663622 1.0760925
00000000: 421c cc3e e49b e13e 5bd9 c83e f944 8e3e
00000010: 64a0 473d 9197 fabc dd6a acbe 7773 8bbe
00000020: 57be f2be b02a 62be 3301 60be 90a9 8bbe
00000030: a8d4 dfbe 0925 bcbe db62 b9bf 1019 06c0
00000040: 262f efbf 63bf c3bf f0db e6bf d442 e8bf
00000050: 8bf4 6dbf 3e0c 1c3f e0fe 2f3f a23c 0e3f
00000060: 6938 fe3e e8e7 fb3e d217 ea3e 4005 0a3f
00000070: 2e29 cc3e 687f bc3e 0a9c c03e bd72 2e3f
00000080: b783 113f a734 b23e 4689 c23e bf0f 123f
00000090: a435 853f 5ab4 353f 3c1a 6e3f 1699 ea3e
000000a0: 8a27 a83c 2f24 b23e 1616 813f 2071 2a3f
000000b0: 86c6 1a3f 4c49 643f a40b 523f f0fb 4a3f
000000c0: fd74 253f 62d3 ec3e 4ddb f43e 02f5 8d3e
000000d0: 744a 953e fbd0 983e 113a 0e3f 291b 613e
000000e0: fe49 1e3e d3e0 ae3e f721 a73f b5e5 df3f
000000f0: b247 c33f c2b1 bb3f 66bd 893f

bias f4 [3]
-0.33752003 0.5877495 0.70195913
00000000: 6dcf acbe c076 163f 98b3 333f

weight f4 [3, 3, 3]
0.871995 0.60278153 0.80847925 -0.04012564 -0.52444 -0.061968595 -0.88616735 -1.0725905
-0.48629567 -0.29370403 -0.4920149 -0.6214918 -0.4524893 -0.5509019 -0.7543547 -0.7307976
-0.65622616 -0.60246366 -0.873668 -1.2771027 -1.0858656 0.63198483 1.2725629 0.9538027
1.6170391 1.8895346 0.4527446
00000000: 103b 5f3f e44f 1a3f 7ff8 4e3f c85a 24bd
00000010: b341 06bf c8d2 7dbd dddb 62bf a54a 89bf
00000020: bffb f8be 6060 96be 61e9 fbbe 161a 1fbf
00000030: adac e7be e807 0dbf 641d 41bf 8d15 3bbf
00000040: 70fe 27bf 0f3b 1abf b5a8 5fbf 1a78 a3bf
00000050: a5fd 8abf c2c9 213f 57e3 a23f 6a2c 743f
00000060: 23fb ce3f 45dc f13f 24ce e73e

bias f4 [3]
-0.314695 -0.8115192 0.8019102
00000000: b41f a1be b9bf 4fbf fd49 4d3f

weight f4 [1, 3, 3]
0.32788226 -0.44276693 -0.2887198 -0.43766347 -0.6003817 -0.56706613 -0.5252116 0.5155034
1.2295866
00000000: 2fe0 a73e 59b2 e2be 15d3 93be 6d15 e0be
00000010: 9db2 19bf 3f2b 11bf 4474 06bf 08f8 033f
00000020: 1863 9d3f

weight f4 [3, 3, 5]
-0.22943226 -1.3623221 -1.9736228 -1.7327609 -0.012906473 0.16086905 0.10375504 0.7995989
0.38340884 0.56168807 1.0713795 1.4979337 1.6142416 0.98215103 0.5101728 0.28070965
0.32916036 -0.1623309 -0.893107 -0.912408 -0.28694794 -0.3945224 -0.4454557 -0.69851667
-0.37435827 -0.36717626 -0.33050087 -0.14514863 -0.0014795677 0.13748701 0.16418624 0.16136234
0.23124556 0.49542665 0.26261026 0.57121027 0.30004767 0.351879 0.069834 0.33243403
-0.0021062389 0.062614985 -0.07685784 -0.0053815707 -0.106833555
00000000: 4af0 6abe 9260 aebf ac9f fcbf 1ccb ddbf
00000010: ac75 53bc dbba 243e 867d d43d 83b2 4c3f
00000020: 2a4e c43e caca 0f3f f722 893f 4bbc bf3f
00000030: 789f ce3f 406e 7b3f af9a 023f 2db9 8f3e
00000040: b587 a83e 123a 26be a9a2 64bf 9293 69bf
00000050: d7ea 92be d7fe c9be c512 e4be fdd1 32bf
00000060: e3ab bfbe 87fe bbbe 6937 a9be d8a1 14be
00000070: 0eee c1ba 65c9 0c3e 7020 283e 2b3c 253e
00000080: a3cb 6c3e 90a8 fd3e da74 863e d63a 123f
00000090: d99f 993e 7c29 b43e 2105 8f3d cb34 aa3e
000000a0: d308 0abb 493c 803d a567 9dbd e357 b0bb
000000b0: 8dcb dabd

bias f4 [3]
0.54243505 -0.1388491 0.31479722
00000000: 06dd 0a3f 752e 0ebe 1a2d a13e

weight f4 [1, 3, 5]
-0.20082146 0.04355052 0.3389924 0.8849164 0.8243716 -0.29278576 -0.08995818 -0.24620244
-0.20317334 -0.18344024 0.36784524 0.21225095 0.21157826 0.50358063 0.034162443
00000000: 24a4 4dbe 0862 323d 6990 ad3e e289 623f
00000010: 040a 533f 04e8 95be ff3b b8bd 7e1c 7cbe
00000020: ac0c 50be c2d7 3bbe 3656 bc3e 5058 593e
00000030: f9a7 583e a9ea 003f ebed 0b3d

weight f4 [3, 3, 7]
-0.2240061 -0.22648509 0.13119797 -0.24664183 -0.6022545 -0.40556058 -0.18781629 -0.58967644
-0.4298156 0.104168765 -0.32887894 0.050033443 -0.27656776 0.017472021 -0.27045196 0.7406594
1.3583796 1.1261579 0.33193403 -1.0518138 -1.4909617 0.34384868 -0.13552907 0.12811476
0.34407195 0.16712013 0.2039693 0.34232065 0.19936845 -0.07355231 0.023389159 0.11680833
0.068195835 -0.12802565 0.20009235 -0.73991627 -0.5674047 -0.46783096 0.84857905 1.4692107
1.6691115 1.050262 -0.07390274 0.109485716 -0.49985835 -0.8519462 -0.56053007 -0.5344662
-0.011560362 -0.3837223 -0.14279497 -0.2419901 -0.11863774 -0.27241156 -0.34893242 -0.4962308
1.2832459 1.6548073 1.1572578 -1.091175 -1.7018335 -2.2809298 -1.3978078
00000000: db61 65be b5eb 67be c358 063e ad8f 7cbe
00000010: 5a2d 1abf a3a5 cfbe ea52 40be 09f5 16bf
00000020: ca10 dcbe 6f56 d53d d262 a8be deef 4c3d
00000030: 4a9a 8dbe 7c21 8f3c ae78 8abe db9b 3d3f
00000040: 62df ad3f f125 903f 42f3 a93e d6a1 86bf
00000050: d5d7 bebf ef0c b03e 22c8 0abe 8430 033e
00000060: 332a b03e 8a21 2b3e 54dd 503e a744 af3e
00000070: 3e27 4c3e 98a2 96bd 9f9a bf3c 3539 ef3d
00000080: 42aa 8b3d 2819 03be 02e5 4c3e 276b 3dbf
00000090: 6f41 11bf 8a87 efbe 7a3c 593f 190f bc3f
000000a0: 72a5 d53f fc6e 863f 525a 97bd 0c3a e03d
000000b0: 6fed ffbe 2519 5abf e67e 0fbf c7d2 08bf
000000c0: ac67 3dbc 4077 c4be d838 12be 41cc 77be
000000d0: 58f8 f2bd 8779 8bbe 45a7 b2be f711 febe
000000e0: 6741 a43f bad0 d33f 0621 943f 9fab 8bbf
000000f0: aed5 d9bf c1fa 11c0 5eeb b2bf

bias f4 [3]
0.017248921 0.18982458 0.103244066
00000000: 9c4d 8d3c 6061 423e a071 d33d

weight f4 [3, 3, 3]
0.37864998 0.66526926 0.94311696 -0.13386244 -0.17335337 0.066723004 0.14546128 0.40383577
1.3811785 0.23069249 1.2786211 0.5490673 0.1447737 -0.39674553 -0.61024725 -0.36020374
1.0847971 1.6073656 -0.31527668 0.8673329 0.09478453 -0.17095217 -0.25540242 -0.5977193
-1.7684652 0.37572947 0.41799855
00000000: 69de c13e 164f 2a3f 1d70 713f 3c13 09be
00000010: 8c83 31be 12a6 883d cdf3 143e 90c3 ce3e
00000020: 75ca b03f a73a 6c3e dba9 a33f ad8f 0c3f
00000030: 8f3f 143e 3b22 cbbe 2a39 1cbf a06c b8be
00000040: a2da 8a3f 28be cd3f f26b a1be 8709 5e3f
00000050: 641e c23d 160e 2fbe 1bc4 82be 2204 19bf
00000060: 115d e2bf 9d5f c03e e803 d63e

bias f4 [3]
0.14179222 0.27345118 -0.06136175
00000000: fb31 113e cb01 8c3e 7556 7bbd

weight f4 [1, 3, 3]
0.4810497 0.18195528 0.74495465 0.61707544 -0.3142723 1.0386199 -0.2184729 -0.86314
0.76825553
00000000: 254c f63e 7c52 3a3e 59b5 3e3f a8f8 1d3f
00000010: 4de8 a0be 7ff1 843f 5cb7 5fbe bef6 5cbf
00000020: 65ac 443f

weight f4 [3, 3, 5]
0.02635601 -0.59813076 0.023951322 -0.14847845 0.052647736 0.14131118 0.24100058 0.3337415
0.30299646 0.5701201 0.899028 0.2726348 0.057403553 0.78469557 0.7287387 -0.29091486
0.44817042 -0.041227717 0.17059791 0.5298329 -0.36025316 -0.12904912 -0.40621328 -0.09510879
-0.28313187 -0.58572936 -0.34391817 -0.10992023 -0.42428535 -0.5501738 0.06689545 0.33467314
0.13011473 0.50117034 0.32530263 -0.26686576 -0.012864012 0.07046608 -0.34893423 -0.51178545
-0.49878618 0.3044841 -0.18900499 -0.7614658 -0.38567507
00000000: 8fe8 d73c 191f 19bf 9035 c43c bc0a 18be
00000010: 27a5 573d e1b3 103e dbc8 763e 2ae0 aa3e
00000020: 5a22 9b3e 64f3 113f b326 663f ca96 8b3e
00000030: fd1f 6b3d cfe1 483f 9f8e 3a3f cbf2 94be
00000040: 9876 e53e 65de 28bd 38b1 2e3e 21a3 073f
00000050: 1a73 b8be 7425 04be 30fb cfbe 66c8 c2bd
00000060: a9f6 90be 5cf2 15bf 0b16 b0be dc1d e1bd
00000070: ee3b d9be 31d8 0cbf 7b00 893d 475a ab3e
00000080: cc3c 053e b34c 003f 118e a63e a1a2 88be
00000090: 94c3 52bc 8550 903d 82a7 b2be 5f04 03bf
000000a0: e760 ffbe 57e5 9b3e 868a 41be 6cef 42bf
000000b0: 3477 c5be

bias f4 [3]
0.022226911 0.36530682 0.18940142
00000000: 3615 b63c 7f09 bb3e 72f2 413e

weight f4 [1, 3, 5]
0.46505022 0.44072345 0.12119335 0.39115995 0.39162576 -0.00045036833 0.08470308 0.23155613
-0.13445576 0.2080056 0.20273483 0.12939641 0.18260545 0.2755726 0.10093959
00000000: 101b ee3e 81a6 e13e 3834 f83d 1e46 c83e
00000010: 2c83 c83e 6a1f ecb9 cf78 ad3d 0d1d 6d3e
00000020: c5ae 09be 6cff 543e b899 4f3e 7e80 043e
00000030: ecfc 3a3e da17 8d3e 6ab9 ce3d

weight f4 [3, 3, 7]
0.29838982 0.5097813 0.15098025 -0.13748705 0.31126177 0.7324052 0.5562293 -0.01508292
-0.10842587 -0.0149547625 0.045501295 0.37103862 0.18542606 -0.10099718 -1.0127455 -2.0744834
0.13275594 1.8620039 -0.75255424 -2.024336 -0.030094221 -0.19243118 -0.5248553 -0.19460662
-0.21925953 -0.24362876 -0.35025567 -0.56654507 0.30114183 0.23774119 0.31556484 0.22738168
0.1274101 0.34354374 0.37717798 0.44853044 0.7376742 0.7688153 0.6413016 -0.46038532
-0.9674777 -0.78170097 -0.28466615 -0.31483558 -0.11206535 -0.20722868 -0.25580814 -0.109354086
-0.3228131 -0.044341616 0.3773418 0.4139902 0.31472972 0.14245065 0.08321933 0.3952523
-0.16737245 -0.06422429 0.75660825 1.2556905 -0.37454367 -1.2207766 -0.083448544
00000000: 8dc6 983e 0781 023f 919a 1a3e 68c9 0cbe
00000010: b45d 9f3e e87e 3b3f 0b65 0e3f 5a1e 77bc
00000020: 620e debd d204 75bc 915f 3a3d c6f8 bd3e
00000030: 54e0 3d3e 9cd7 cebd a5a1 81bf 56c4 04c0
00000040: 2cf1 073e 2556 ee3f 65a7 40bf b98e 01c0
00000050: 2888 f6bc ae0c 45be eb5c 06bf f546 47be
00000060: 9285 60be d179 79be b654 b3be 1909 11bf
00000070: 432f 9a3e 6d72 733e b791 a13e bed6 683e
00000080: cb77 023e f7e4 af3e 791d c13e c8a5 e53e
00000090: 37d8 3c3f 14d1 443f 572c 243f a0b7 ebbe
000000a0: 9eac 77bf 8e1d 48bf c3bf 91be 2132 a1be
000000b0: 8582 e5bd c133 54be 49f9 82be 09f5 dfbd
000000c0: c247 a5be 8e9f 35bd f232 c13e 86f6 d33e
000000d0: 4124 a13e 95de 113e e56e aa3d 825e ca3e
000000e0: af63 2bbe 0688 83bd 14b1 413f 77ba a03f
000000f0: 30c4 bfbe 6842 9cbf 12e7 aabd

bias f4 [3]
0.19192521 0.095901504 0.09980449
00000000: 0b88 443e 0268 c43d 4c66 cc3d

weight f4 [3, 3, 3]
1.0575839 -0.89731747 1.1950237 0.090647556 0.23920372 -0.055774 0.15934774 -0.4101697
0.1637954 -0.034243133 1.0369097 -0.057919145 -0.59170395 -0.501405 -0.35165885 -0.35128555
0.3545244 -0.089244746 -0.06955856 -0.27270186 -0.3274704 0.80315197 1.0388274 0.780986
0.19892867 0.25746366 -0.1139722
00000000: e95e 873f 99b6 65bf 89f6 983f 6da5 b93d
00000010: d2f1 743e 4773 64bd 0e2c 233e c301 d2be
00000020: fbb9 273e 8742 0cbd 75b9 843f a03c 6dbd
00000030: e979 17bf 145c 00bf a10c b4be b3db b3be
00000040: 3984 b53e f3c5 b6bd b874 8ebd 949f 8bbe
00000050: 33aa a7be 5e9b 4d3f 4cf8 843f b3ee 473f
00000060: f5b3 4b3e 47d2 833e 426a e9bd

bias f4 [3]
0.27999684 -0.113637336 0.14380895
00000000: bf5b 8f3e b1ba e8bd a742 133e

weight f4 [1, 3, 3]
0.33830976 -0.30963475 0.022949025 -0.2321256 0.35709447 -0.059711028 -0.4757258 -0.5448195
-0.6500046
00000000: f036 ad3e 7288 9ebe 98ff bb3c 55b2 6dbe
00000010: 16d5 b63e 8d93 74bd 5592 f3be 4a79 0bbf
00000020: b466 26bf

weight f4 [3, 3, 5]
0.030054688 0.0058447625 -0.47112218 -0.024166973 -0.32826605 -0.15483455 0.22563066 0.13634549
-0.11516777 -0.16781914 0.15042607 -0.060908314 -0.07852707 -0.0007036203 -0.25351772 -0.109417304
0.40292412 -0.05568902 -0.030662525 0.19825211 0.07658823 0.08310969 -0.1115435 -0.11251177
-0.022881186 0.3344324 -0.009475531 -0.06895514 -0.20844813 0.16413705 -0.30478534 0.3835798
0.010784317 0.4677115 -0.346931 -0.117714554 -0.017877689 -0.21342365 0.41121182 0.2744856
-0.14615709 -0.46931973 -0.09474694 0.043438766 0.3066448
00000000: 4035 f63c 6c85 bf3b ed36 f1be d1f9 c5bc
00000010: 7d12 a8be f38c 1ebe b90b 673e 279e 0b3e
00000020: 14dd ebbd c8d8 2bbe 4b09 1a3e ff7a 79bd
00000030: cdd2 a0bd 2973 38ba 13cd 81be 2e16 e0bd
00000040: 124c ce3e 2b1a 64bd fa2f fbbc 9a02 4b3e
00000050: 4ada 9c3d 6a35 aa3d eb70 e4bd 926c e6bd
00000060: 5371 bbbc b93a ab3e 423f 1bbc 5a38 8dbd
00000070: 6d73 55be 8b13 283e d30c 9cbe 9264 c43e
00000080: b4b0 303c e277 ef3e f1a0 b1be 5414 f1bd
00000090: 3b74 92bc bb8b 5abe 5b8a d23e 6089 8c3e
000000a0: 34aa 15be ad4a f0be af0a c2bd d9ec 313d
000000b0: 8c00 9d3e

bias f4 [3]
0.01895459 0.11968031 0.0075837495
00000000: a846 9b3c f31a f53d 1a81 f83b

weight f4 [1, 3, 5]
-0.056424364 -0.07119953 0.0072384696 -0.04116598 -0.08142469 -0.19353478 -0.06032868 -0.034606528
-0.06272784 0.026300821 -0.017944016 -0.16870096 -0.10230116 -0.33152327 0.0984192
00000000: 3c1d 67bd 0fd1 91bd af30 ed3b a99d 28bd
00000010: fdc1 a6bd fb2d 46be 351b 77bd 93bf 0dbd
00000020: 7477 80bd d274 d73c 54ff 92bc f2bf 2cbe
00000030: 4583 d1bd 6bbd a9be 0190 c93d

weight f4 [3, 3, 7]
-0.16219088 -0.012578921 0.4148887 -0.0016759423 0.3276347 0.072142534 -0.052441973 -0.15793164
-0.005387015 0.091543585 0.024788268 -0.005257825 -0.14662956 0.14687018 -0.4659739 -0.9582328
-0.6197552 -1.2370853 -0.5205556 -0.7599902 0.60350287 -0.0918057 -0.31135914 -0.3819254
-0.1305635 -0.055491764 -0.1889334 -0.19294587 0.18103042 -0.19745687 -0.00884344 -0.14545946
0.08843168 0.13028793 -0.007996926 0.14012101 0.77620935 0.30987412 1.2216554 0.4191448
0.26536122 -0.3814783 0.011245667 0.2542449 -0.18143497 0.21948285 -0.22137217 0.19937429
0.15122834 0.027326303 0.048469737 0.21478412 -0.027079377 -0.14110406 0.3049348 -0.032739468
0.28353903 0.6931222 0.7041801 1.6110035 0.04992828 0.35031977 -0.26248378
00000000: 5e15 26be d217 4ebc 4b6c d43e 4bab dbba
00000010: bcbf a73e 77bf 933d 65cd 56bd d5b8 21be
00000020: 8f85 b0bb 347b bb3d c410 cb3c d549 acbb
00000030: 0f26 16be 2365 163e 2294 eebe bf4e 75bf
00000040: 47a8 1ebf d058 9ebf 2243 05bf b88e 42bf
00000050: 2a7f 1a3f a004 bcbd 776a 9fbe ba8b c3be
00000060: 70b2 05be 554b 63bd c277 41be 9a93 45be
00000070: 0a60 393e 2232 4abe 13e4 10bc 53f3 14be
00000080: ab1b b53d 336a 053e 8a05 03bc e27b 0f3e
00000090: a8b5 463f d2a7 9e3e 345f 9c3f 269a d63e
000000a0: 6ddd 873e 2051 c3be bf3f 383c 632c 823e
000000b0: 17ca 39be 1dc0 603e 63af 62be c628 4c3e
000000c0: 9adb 1a3e 69db df3c 3488 463d 5ef0 5b3e
000000d0: 92d5 ddbc 957d 10be 6a20 9c3e d219 06bd
000000e0: 072c 913e 7570 313f 2645 343f 5d35 ce3f
000000f0: 9981 4c3d 1d5d b33e 4664 86be

bias f4 [3]
0.064996175 -0.10046224 0.102212645
00000000: b71c 853d 26bf cdbd dd54 d13d

weight f4 [1, 3, 5]
0.31472656 -0.041982993 0.4009584 0.26352564 0.016283782 0.09765387 -0.24961746 -0.25896287
-0.023854509 -0.26665294 0.2644457 -0.06825655 -0.090627365 -0.24264501 0.0977335
00000000: d723 a13e 5cf6 2bbd 6b4a cd3e d5ec 863e
00000010: 9165 853c c1fe c73d b89b 7fbe c896 84be
00000020: 886a c3bc bc86 88be 6d65 873e 17ca 8bbd
00000030: d79a b9bd ef77 78be 8028 c83d
