reconstruction.pth (torch, 41065 bytes, 45 tensors)

weight f4 [3, 1, 5]
000000 f1 49 f3 bc 7d 53 c2 bd 38 84 8b bc 89 af bc be
       -0.029698344 -0.094885804 -0.01703082 -0.36852673
000010 db a1 ec be 8e f6 16 be 3a cb 9e 3d 8a af 00 3d
       -0.46217236 -0.1474249 0.07753606 0.031417407
000020 11 02 4b bf 39 05 52 be 5c ae 0f 3c 7c 13 e2 be
       -0.7930003 -0.20509805 0.008769598 -0.4415549
000030 6b f2 39 bf eb 04 c1 be e7 0f 8a bd
       -0.72635525 -0.37699065 -0.067413144

bias f4 [3]
000000 3e 1d 0b 3e 8e db 9c be 18 84 22 be
       0.13585374 -0.30636257 -0.15870702

weight f4 [3, 3, 3]
000000 5f 96 42 be 02 0f ea 3c 63 df 36 bd 43 74 6b be
       -0.19002675 0.02857161 -0.044646632 -0.22993569
000010 d7 6e 10 3c 4e e8 1a 3e 97 75 a2 3d b3 0f 88 be
       0.008815489 0.1512768 0.07932585 -0.26574478
000020 a9 27 cf be b1 2d 0d 3e 4b a4 fb 3e 06 d5 c1 3e
       -0.40459946 0.13786961 0.49148783 0.37857836
000030 75 f5 48 3e 9e 7d 29 3d 9d 2f d3 3e 1c f8 75 3e
       0.19624884 0.041379564 0.41247264 0.24020427
000040 fa 2a 7e bd e2 65 c9 be ba fc 5a bf 9a e3 7e be
       -0.062052704 -0.39335543 -0.8554188 -0.2489151
000050 9e 27 e9 be 05 35 21 bf 4e 49 c9 be 09 ab 3c bf
       -0.45538038 -0.62971526 -0.3931374 -0.7369848
000060 e7 13 74 3f 58 f8 01 3e 9e 02 e8 3c
       0.9534287 0.12692392 0.02832156

bias f4 [3]
000000 ed a9 d1 bd 52 05 02 3f e4 a2 55 3e
       -0.10237489 0.5078937 0.20862919

weight f4 [1, 3, 3]
000000 58 26 32 be dc 2a af 3e 77 a8 8f bd c7 14 3c 3d
       -0.1739744 0.34212387 -0.07014554 0.045918252
000010 b4 ba 9e 3e cb 9e 56 be 62 f7 3f 3e 06 78 49 be
       0.31001818 -0.20959012 0.18746713 -0.19674692
000020 d2 0e 20 3e
       0.15630654

weight f4 [3, 3, 5]
000000 97 4a 1c be 77 45 45 be c1 f9 4e be d8 51 48 3d
       -0.15262829 -0.1926478 -0.20212461 0.048906177
000010 53 2d 41 be c8 74 e0 3d 96 76 5a be 12 e6 b4 be
       -0.18864946 0.10959774 -0.213343 -0.3533178
000020 ee 5b 45 be a1 a4 55 bd 70 ec a9 3e 58 78 07 3f
       -0.1927335 -0.052158955 0.331882 0.52918005
000030 2c a3 a3 bc 8d 92 1f 3e b5 2a e8 bd 5c f7 85 bc
       -0.019975267 0.15583248 -0.11336271 -0.016353302
000040 b4 e3 12 3e b7 d8 a8 3b c0 25 9d be b3 75 88 be
       0.14344674 0.0051527875 -0.30692863 -0.26652297
000050 86 c3 d2 3d b1 f8 8c be 6c 8a 8c be f8 39 87 be
       0.102911994 -0.27533486 -0.27449358 -0.26411414
000060 82 ef 8a be 27 a0 53 3e f4 82 77 3f 23 65 5b 3f
       -0.27135855 0.20666562 0.96684194 0.857012
000070 26 89 73 3f ac da 8c 3f a0 6a 61 be 38 d2 23 bf
       0.95131147 1.1004233 -0.2201333 -0.63992643
000080 a8 6e 6f bf 84 e0 04 be 1f 63 15 bf a3 37 c6 be
       -0.93528223 -0.12976271 -0.5835437 -0.38714322
000090 c3 6d 19 bf fd 27 0e bf 51 6d 5b be ae 66 f7 be
       -0.5993311 -0.5552977 -0.2142842 -0.48320526
0000a0 57 af f3 3e e8 36 9f 3e fc 30 70 bd be 08 46 3d
       0.4759471 0.31096578 -0.058640465 0.04834818
0000b0 50 8e f2 3d
       0.1184355

bias f4 [3]
000000 ce 44 b2 3d c5 9a 2c be ec 82 be 3c
       0.0870453 -0.16855915 0.023255788

weight f4 [1, 3, 5]
000000 41 7c b5 3c 89 ac 3c be 56 28 95 be 88 17 88 be
       0.022153975 -0.18425192 -0.29132336 -0.26580453
000010 07 95 06 3e 49 ed 91 3e 84 46 75 3e be 0e c9 3e
       0.13142787 0.28501347 0.23952681 0.3926906
000020 8b 63 87 be 29 1d 54 3e 40 1a 95 be d7 ee c9 be
       -0.26443133 0.20714249 -0.2912159 -0.39440033
000030 ad 73 17 3d bd e8 a4 bd 26 c6 53 3e
       0.03697555 -0.08052204 0.20681056

weight f4 [3, 3, 7]
000000 75 19 bb be 20 af bd bd 1d 27 17 be f6 40 60 3d
       -0.3654286 -0.09261918 -0.14761014 0.05474945
000010 21 cc 5e 3e 15 fe 87 3d 18 cc e1 3e 75 3a e5 be
       0.21757556 0.06640259 0.44101024 -0.44771162
000020 38 5d f1 be e9 25 0d bf 06 cd c4 be 6d ae 0f bf
       -0.47141433 -0.5513597 -0.3843767 -0.5612553
000030 2d 2c 87 be 28 1b ac bd 07 ad d0 bd 30 5a 4b 3e
       -0.2640089 -0.08403617 -0.10189252 0.19858623
000040 6d 53 c6 3e 09 68 4d 3d 16 45 b1 bc 3c a7 38 3e
       0.38735524 0.050148044 -0.021639388 0.18032545
000050 63 44 2a be 51 3e 04 3e 28 4f 63 be e0 24 b7 3e
       -0.1662765 0.12914397 -0.22198164 0.3577032
000060 13 01 14 be 95 7c 31 bc 07 81 15 be b1 b2 de bd
       -0.14453535 -0.010832925 -0.14600001 -0.108739264
000070 91 9d 18 bf 4a ad b5 be 46 b5 19 bf a5 21 05 bf
       -0.5961543 -0.35483772 -0.60042226 -0.5200446
000080 cd d9 21 bf 7d 3f 96 bd 19 2e 61 be 4c c2 28 be
       -0.6322296 -0.07336328 -0.21990241 -0.16480368
000090 43 60 9d be 60 62 1d 3e b0 c3 7e be cc 46 df 3e
       -0.30737504 0.15369558 -0.24879336 0.436087
0000a0 87 3d 41 3e b4 17 be 3e 05 4c 7b bc 71 16 bb be
       0.18871127 0.3712746 -0.015337949 -0.3654056
0000b0 01 ce 5e be d9 a7 e0 be d9 6c 59 bd 1b 3e e8 bc
       -0.21758272 -0.43878058 -0.05308232 -0.028349927
0000c0 86 49 9d 3e ac 09 ef bd 05 33 91 bc 52 87 01 be
       0.30720156 -0.11671767 -0.017724523 -0.12649277
0000d0 fb ac b4 bd f4 ac a3 3c 35 f7 54 3e 71 f1 2a bd
       -0.08822056 0.019979931 0.20797427 -0.041734163
0000e0 9b 06 f5 3e 30 b9 b2 be cb b3 93 3c b4 b6 2f bf
       0.47856602 -0.34906912 0.018030068 -0.6863816
0000f0 17 65 80 bf f0 ae e3 be 7c 9b 99 be
       -1.003085 -0.44469404 -0.30001438

bias f4 [3]
000000 0f 16 83 be ba 2a 3a be 1a cb 28 bf
       -0.25602767 -0.18180361 -0.6593491

weight f4 [3, 3, 3]
000000 67 e5 5b be 5d 83 0a 3f 10 fc 72 3e af 8e 95 be
       -0.21474229 0.54106694 0.23728967 -0.2921042
000010 87 d8 31 3f 0f 7f b9 3d ec cb 88 3e b7 ed d1 be
       0.6947102 0.09057438 0.2671808 -0.41001675
000020 61 97 da bb 3b 33 92 bf cd fc a0 bf 6a fb 77 bf
       -0.006670878 -1.1421884 -1.2577149 -0.96868
000030 70 7f 6a be 8a 2a ae 3d 10 7a ca be 02 82 9e bf
       -0.22900176 0.085042074 -0.3954625 -1.2383425
000040 23 75 b4 be 2e 07 a7 be 83 67 21 bf 1a 58 8e bf
       -0.35245618 -0.32622665 -0.6304857 -1.1120636
000050 a8 05 95 bf 29 19 c0 bc a7 c1 14 bf 5a d6 b2 be
       -1.1642351 -0.023449497 -0.5810799 -0.34929162
000060 2d 23 8b be f4 4f 86 bf d2 ad 81 bf
       -0.27175274 -1.049315 -1.0131171

bias f4 [3]
000000 bf 6f 03 3f 9b 51 82 3e 55 b9 b1 3e
       0.51342386 0.25452885 0.3471171

weight f4 [1, 3, 3]
000000 a4 ad 96 be 85 e0 44 bf cb 6b 29 3e 9e 85 0d 3d
       -0.29429352 -0.7690509 0.16545026 0.034551255
000010 aa e8 fd be bb e4 3e bf b8 a9 37 bf af 31 b6 be
       -0.4959157 -0.74567765 -0.71743345 -0.3558478
000020 13 00 46 be
       -0.19335966

weight f4 [3, 3, 5]
000000 cc 41 8d be 34 e3 94 be 06 c3 2c be 2c 3a b2 bc
       -0.27589262 -0.29079592 -0.1687127 -0.021756254
000010 a5 97 76 be e4 79 94 3e de 7f d4 3e e2 2c f6 3d
       -0.24081285 0.28999245 0.41503805 0.120202795
000020 85 39 37 bd 5d 89 ab 3d e3 dd ff ba b8 95 7c 3e
       -0.04473259 0.08375809 -0.0019521083 0.24666488
000030 a0 cd 2e 3d 69 eb eb bd d1 6c c2 be da dc 3b 3e
       0.042676568 -0.1151951 -0.37973645 0.18345967
000040 5f 18 49 be a8 f4 3f be a5 38 4f bf 44 75 28 bf
       -0.19638203 -0.18745673 -0.8094581 -0.65803933
000050 0b 27 55 bd 41 db 39 3e 77 d1 e6 3d 68 68 9f 3e
       -0.052039187 0.18150045 0.11270421 0.31134343
000060 98 c8 b7 3e c4 5f 51 3e f2 60 4c 3e 69 37 d8 be
       0.35895228 0.20446688 0.19958857 -0.42229775
000070 e4 60 e6 be f5 10 4b be 1a eb 5f bf 85 7c 61 bf
       -0.44995797 -0.19830687 -0.8746811 -0.88080627
000080 92 fd 5f bf 92 0f 68 bf 17 fe 33 bf 15 ec 3e bf
       -0.8749629 -0.9064876 -0.70309585 -0.7457898
000090 2c 1a 0f bf 52 4c 9b be 2b 44 0a bf 15 8b 1d bf
       -0.5589931 -0.30331665 -0.54010266 -0.6154035
0000a0 7c 99 9d 3e 08 7a 3e be 72 af f8 3e 12 e3 26 be
       0.30781162 -0.18601239 0.48571354 -0.16297558
0000b0 99 a7 ff 3e
       0.49932554

bias f4 [3]
000000 8d c9 8f bd f5 42 b8 be 7d 91 6c bf
       -0.07020865 -0.35988584 -0.924095

weight f4 [1, 3, 5]
000000 39 b5 2e be 7d db 20 3e 89 44 72 bc c4 cf b9 3c
       -0.17061318 0.15708728 -0.014786848 0.022682078
000010 70 a2 0d 3c cc f5 b0 3d 2f 00 fc bd 91 17 19 be
       0.008644685 0.08640632 -0.123047225 -0.14950396
000020 7b f7 56 3d 73 79 9a bc 4a 77 a1 be 47 3f f9 be
       0.05248211 -0.01885674 -0.31536323 -0.4868109
000030 2a bf bf be e8 05 0d bf f3 7c dc be
       -0.37450534 -0.5508714 -0.4306408

weight f4 [3, 3, 7]
000000 83 14 8f be 3e 77 b0 be 18 43 b8 be 8b f0 fd bd
       -0.27945337 -0.34465975 -0.35988688 -0.123993956
000010 65 07 54 bf 97 27 33 be ac e3 21 be 71 d7 55 3e
       -0.82823783 -0.17495571 -0.15809506 0.20882966
000020 47 ac 99 bd c2 51 c8 3d 97 d7 2b 3e 46 22 72 be
       -0.075035624 0.09781219 0.1678146 -0.23645887
000030 d0 6c 75 bc e7 e4 2a be 41 2e 67 3f b8 86 4c 3d
       -0.014979556 -0.16688882 0.9030495 0.049933165
000040 35 3b d9 3d 61 03 63 bf 12 55 d1 be 87 47 6f 3c
       0.10606996 -0.8867703 -0.40885216 0.014604456
000050 3f e3 2d 3f 03 77 a0 be 97 47 51 3d c8 fc d4 be
       0.67924875 -0.313408 0.051093664 -0.41599107
000060 52 39 f1 be 3c 31 bc be bb cd ea bd 61 e2 26 bf
       -0.47114044 -0.36756313 -0.11465021 -0.65189177
000070 cb 6b 10 be 62 67 93 3d fb e1 ed bd 51 16 c6 be
       -0.1410362 0.07197453 -0.11615368 -0.386889
000080 7e 08 0e bf 24 ce 25 be 74 ba e5 bc 3f 70 1f be
       -0.5548171 -0.16191918 -0.02804301 -0.15570162
000090 02 5b 13 3f 34 ed 93 be 7e 78 af bc 19 f1 62 be
       0.5756074 -0.2889191 -0.02141976 -0.22162284
0000a0 93 8c b3 3e 27 25 c9 3d e7 c8 f6 3e 21 bc 15 3f
       0.35068187 0.09821539 0.4820015 0.58490187
0000b0 04 38 e4 3e 5b 20 03 3f 5e 23 1b 3f f7 e0 c9 3e
       0.44573987 0.51221246 0.6060084 0.39429447
0000c0 02 35 31 3f c5 2e a6 3e a3 1b 92 3e 91 10 96 3e
       0.6922151 0.32457557 0.2853671 0.29309514
0000d0 d3 bf d0 3e 9f 1c 44 3e 98 74 ef 3d e3 20 32 3e
       0.4077135 0.19151543 0.1169216 0.17395358
0000e0 c2 2d 16 3f 89 2b 31 3f 5a 65 eb bd 86 53 a4 be
       0.5866357 0.69207054 -0.11493941 -0.32094973
0000f0 2f eb b5 be d1 e0 f3 3d 36 8a 5f 3e
       -0.35530993 0.11908115 0.21830067

bias f4 [3]
000000 77 3a cb be 04 06 57 be 73 7a 6b 3f
       -0.39693043 -0.20998389 0.9198372

weight f4 [3, 3, 3]
000000 6d 1a 1d 3f 90 f7 82 3e b2 f8 6e be 12 ac 29 3e
       0.6136845 0.255795 -0.23337057 0.16569546
000010 69 7e 80 bd a5 0b 64 3e 68 5a 86 bd 1a 5c 0d bf
       -0.06274111 0.22270067 -0.065602124 -0.5521866
000020 f4 da d3 be 50 25 d7 3d 89 17 6e be fc 08 22 bf
       -0.41377985 0.10505164 -0.23251165 -0.6329496
000030 ef f8 c1 be 75 13 94 be 2f ec 6c 3e a7 fa aa 3e
       -0.37885234 -0.28921095 0.23136972 0.33394358
000040 fd bb 85 3e 23 77 e0 3e 97 63 02 bd eb 18 d5 3e
       0.26119986 0.43840894 -0.031833258 0.41620573
000050 c1 ea 78 be e7 f9 d9 3e f3 08 48 3f 3c 59 0c 3e
       -0.24308302 0.42573473 0.78138655 0.13705915
000060 1e 74 4d 3e 7a 33 9d be a4 f7 7c bd
       0.20063826 -0.30703336 -0.061759606

bias f4 [3]
000000 47 ec 2d 3f 2c 82 ac be 5f 86 b7 be
       0.67938656 -0.33693063 -0.35844705

weight f4 [1, 3, 3]
000000 f9 13 d3 bd 58 ff 00 be fc 64 69 be d3 6d 97 be
       -0.10306544 -0.12597406 -0.22792429 -0.29575977
000010 60 c5 8f 3b 93 28 45 be ae 6c 26 3e 3d 9a 60 3e
       0.0043875426 -0.19253759 0.16252396 0.21933837
000020 ab 1f 51 be
       -0.20422237

weight f4 [3, 3, 5]
000000 3a ac d4 3e 25 39 04 bd d7 a8 40 be 2a 82 b9 3e
       0.41537648 -0.03228106 -0.18814407 0.3623212
000010 4a d3 47 3f 8e ee 1f be b9 ab 66 be 38 f5 72 be
       0.78056777 -0.15618345 -0.22526444 -0.23726356
000020 3a 82 2d 3d 03 42 7d 3d 97 39 0c bf e9 e0 dd be
       0.04236052 0.06183053 -0.54775375 -0.43335655
000030 81 46 be be 19 c4 c2 be 89 20 e4 bd 9f 99 73 3d
       -0.37163165 -0.38040236 -0.11139018 0.059472676
000040 2b 81 23 3e d8 4c 32 3b 50 23 9f be ea 1e d6 be
       0.15967242 0.0027206447 -0.3108163 -0.4182046
000050 78 6f 93 3e 10 a9 96 bc 74 34 a9 3e 70 dd c9 3e
       0.2879598 -0.018391162 0.3304783 0.39426756
000060 21 47 c7 3e f9 24 1e 3f cc 35 3f 3f 9c 06 93 3e
       0.38921455 0.61775166 0.7469146 0.2871598
000070 db a6 d6 3d 7e b9 85 3e 18 05 3d 3f 99 f8 2b 3f
       0.10481044 0.26118082 0.738359 0.67176205
000080 27 f0 7e 3f 3b 0f 77 3f 65 0b 65 3f 06 c5 ab be
       0.99585193 0.96507615 0.8947051 -0.33548754
000090 0e a4 38 be 32 81 3b be c5 fe 85 be eb 75 a1 be
       -0.18031332 -0.18311003 -0.26170936 -0.31535277
0000a0 43 a5 26 bf 03 e5 c6 bd d1 0c 45 bc e2 b0 d9 be
       -0.6509592 -0.09711649 -0.012026981 -0.42517763
0000b0 2b f9 49 bf
       -0.78895825

bias f4 [3]
000000 2d ff a9 3e a2 cb f5 be 95 5d 6c be
       0.33202496 -0.48006922 -0.23082574

weight f4 [1, 3, 5]
000000 dd b3 1a be 46 7f ca bd 78 77 e1 bd 8e cc 12 be
       -0.15107675 -0.09887557 -0.11009115 -0.14335844
000010 a4 5c 8e be 3d 76 09 3f a9 ce ff 3e 83 53 d4 3e
       -0.27805054 0.5369604 0.49962357 0.41469964
000020 26 c2 c6 3c 34 1f d2 bb c8 86 1b bf b8 6c 0b bf
       0.024262499 -0.006412411 -0.60752535 -0.54462767
000030 92 f4 0a bf 93 93 8a 3d 10 58 3f 3c
       -0.54279435 0.06766429 0.011678711

weight f4 [3, 3, 7]
000000 84 b8 e8 be 28 fe ba be fd 61 1a bf c4 c5 df 3d
       -0.45453274 -0.3652203 -0.6030577 0.10926393
000010 95 e9 92 bd 6d f6 af 3e 33 bb de 3e 28 9d ac 3e
       -0.071734585 0.34367695 0.43502197 0.3371365
000020 bb c2 ce 3e 4c 49 59 3e 86 a2 5a 3e ea fa 1d be
       0.40382943 0.21219367 0.2135106 -0.15427747
000030 e5 98 3a 3d 8b 50 91 3d 4f 6e 52 bd 9d 0b be 3d
       0.045555968 0.070954405 -0.05137473 0.09279559
000040 39 56 01 bf 7b e9 a9 3b 47 1c 0d bf a6 4d af be
       -0.5052219 0.0051853037 -0.5512127 -0.3423893
000050 75 59 a3 3e fa da 04 be 15 6a 43 be 89 58 6a 3e
       0.31904188 -0.12974158 -0.19083436 0.22885336
000060 42 79 30 bf 78 c2 3b bf 17 3d 09 bf 53 6e 58 bf
       -0.68935025 -0.7334361 -0.5360884 -0.8454334
000070 b0 3f c9 be bc 86 3f bf 32 46 0e bf eb b0 44 bf
       -0.39306402 -0.74814963 -0.5557586 -0.76832455
000080 96 c4 f5 be 45 14 ab be f0 c2 0c be ea c6 c5 3e
       -0.48001546 -0.33413902 -0.13746238 0.38628322
000090 03 d2 21 3e ea 42 7c 3e 00 78 15 be 4d f8 4a 3f
       0.1580277 0.246349 -0.14596558 0.79285127
0000a0 b5 ee 22 3f 15 2a 7c bf 57 77 15 be 83 14 14 bd
       0.6364549 -0.9850171 -0.14596306 -0.036152374
0000b0 e7 80 cd be 50 bb dd bd 9a 44 20 bc cb 77 80 3e
       -0.40137407 -0.10826743 -0.009781981 0.25091395
0000c0 e7 f2 72 3e 60 a4 12 3f 79 eb 0c 3f b0 b9 b0 3e
       0.23725472 0.57282066 0.550468 0.34516668
0000d0 d9 7f 0c 3f 06 dd 80 3e 4a e2 80 3e 1c 19 6d 3e
       0.5488258 0.25168628 0.25172645 0.2315411
0000e0 e1 44 d1 3e af 84 e6 be ba 33 8d bf 4f b8 1b bf
       0.40872863 -0.45023105 -1.1031411 -0.6082811
0000f0 5c 47 99 be 40 8f 88 bf ba 42 8c be
       -0.29937255 -1.0668716 -0.27394658

bias f4 [3]
000000 33 4a e7 3e 25 c4 30 bf 9b 5b d0 3d
       0.45173797 -0.6904929 0.10173722

weight f4 [3, 3, 3]
000000 e4 a7 94 be 7e d5 aa bd 6e ec a4 bd a3 25 4b 3f
       -0.2903434 -0.08341502 -0.08052908 0.79354304
000010 96 3f ad 3e 99 77 d4 3e cb b7 d6 3e 09 43 f0 3e
       0.33837575 0.41497496 0.41937098 0.46926144
000020 00 63 6d 3e 49 19 7c be 1a 88 80 be 0d 79 0a bf
       0.23182297 -0.2461902 -0.25103837 -0.5409096
000030 31 36 b7 3e 41 85 5e 3f de fc 83 3f a2 59 67 bf
       0.35783532 0.8692208 1.0311544 -0.90371144
000040 51 7e 5b bf c8 49 82 bf df 6d 83 3e 31 2a 6f 3e
       -0.8573962 -1.0178766 0.25669762 0.23355938
000050 8e 3f 20 3e 7c 89 e1 3e 5e 84 93 3e 06 e8 84 3e
       0.15649244 0.44050205 0.28811926 0.2595827
000060 ad 96 bc 3e f6 81 79 3f 0e 77 12 3f
       0.36833706 0.9746393 0.57212913

bias f4 [3]
000000 4c ca 25 be c8 2a 93 bf 31 12 88 bf
       -0.16190451 -1.1497431 -1.0630552

weight f4 [1, 3, 3]
000000 0d 1c e2 bd 76 26 83 be 04 46 a5 3c e3 c2 15 bf
       -0.110405065 -0.2561528 0.020174988 -0.585005
000010 ab 39 3a bf 75 08 3a bc 97 81 96 3d 9f 2c 76 bb
       -0.72744244 -0.011354555 0.07348936 -0.0037563217
000020 bc 9b 6d be
       -0.23203939

weight f4 [3, 3, 5]
000000 26 1a 93 3d 36 d0 98 be e2 35 0f bf 79 e6 c3 bd
       0.07182722 -0.29846352 -0.55941594 -0.095654435
000010 15 65 4f be 7e 6a 58 be 45 24 9a bd dc f3 be 3d
       -0.20253403 -0.21134374 -0.07526449 0.09323856
000020 a9 57 d4 be 9e 68 47 bf ea 23 88 be a9 62 9d be
       -0.4147313 -0.7789401 -0.265899 -0.30739334
000030 84 20 78 be d6 39 12 bf 1d c9 04 bf 2a be 7f be
       -0.24231154 -0.571195 -0.51869375 -0.24974886
000040 e4 55 b6 bc 57 65 05 bf f2 c3 b3 bc fc eb 01 bf
       -0.022257753 -0.5210776 -0.02194402 -0.5075071
000050 8f ed 6b be 4e 32 7d 3c 68 d1 dd be 1b bd ba be
       -0.2303984 0.015453888 -0.43323827 -0.364724
000060 18 73 d7 bc f4 56 02 bf ee 38 a2 bd 41 e5 96 bd
       -0.026299998 -0.5091393 -0.07921015 -0.073679455
000070 ce d2 8b be 43 49 88 ba 32 c5 df be cb 43 1b bf
       -0.2730927 -0.001039781 -0.43705136 -0.6065032
000080 c7 7d 11 bf 5b 9e 65 be 8e dd 82 3c e7 73 12 be
       -0.56832546 -0.22423689 0.015974786 -0.14302026
000090 73 56 db bd c4 34 9e 3e 8a 9d 01 be 91 4d 50 bf
       -0.10709848 0.30899632 -0.12657753 -0.81368357
0000a0 22 1f 5c bf 98 aa c8 bd fb d3 e7 3d c6 cf 54 3e
       -0.85985005 -0.09798163 0.11319729 0.20782384
0000b0 4f bd 5c 3e
       0.2155659

bias f4 [3]
000000 4b 26 e2 3d 6e 00 15 3f fe 4b 43 be
       0.1104246 0.5820378 -0.19071957

weight f4 [1, 3, 5]
000000 37 0b f7 3d 07 70 93 3d d4 6a 28 be b4 a2 30 be
       0.12062686 0.07199102 -0.16447002 -0.17249566
000010 23 21 87 3d 28 c3 8d ba b0 92 c0 3e ba 84 8a 3e
       0.06598117 -0.0010815607 0.37611914 0.27054387
000020 6a cc e0 3d 0e ff 25 bc 77 b3 31 be 51 e5 c0 3d
       0.10976489 -0.010131611 -0.17353617 0.09418739
000030 b8 20 76 3e 68 d3 df 3d ce a1 bb bd
       0.24035919 0.109289944 -0.09161721

weight f4 [3, 3, 7]
000000 d2 ac f6 bd bc f1 c1 3d 69 25 74 be a5 ac 05 3e
       -0.120446816 0.09469935 -0.23842396 0.1305414
000010 15 5d 41 3e 2f 69 8c 3e d6 d4 f0 bc 62 18 19 3e
       0.18883164 0.27424 -0.029398363 0.14950708
000020 10 4c 87 bd 7d 89 b3 3c 88 bc 9a be 68 62 0d bd
       -0.06606305 0.021916145 -0.30221963 -0.034517676
000030 a1 18 ca 3c 95 b4 9d be 3d 08 43 be 3e c1 84 be
       0.024669947 -0.30801836 -0.19046111 -0.25928682
000040 93 43 c1 be 6f 58 fb be b0 71 93 bd 43 d1 fc be
       -0.37746868 -0.49090907 -0.071994185 -0.49378404
000050 03 ff 3d bf 39 8d 1b 3c 17 00 b3 bd a6 c7 8e bd
       -0.7421724 0.009494119 -0.087402515 -0.06971674
000060 c8 10 8c 3e bf a2 84 3e 09 f8 90 3e 37 01 63 3e
       0.27356553 0.25905415 0.28314236 0.22168432
000070 01 73 2d 3f 5a 12 ee 3e 5e 52 f2 3e 49 e7 09 3f
       0.6775361 0.46498376 0.47328466 0.5386854
000080 1b 2a c8 3e e9 4f 29 3e db 6a 0e 3f eb 2b 62 3e
       0.39094624 0.1653439 0.556318 0.22087066
000090 3c 04 ff be 3a 4b 56 bf 7b f2 32 bf 5f 20 f9 be
       -0.49807918 -0.83708537 -0.69901246 -0.4865751
0000a0 55 12 27 be 1d 3e 82 be c2 c9 4a 3e b8 58 f6 3d
       -0.16315587 -0.25438014 0.19803527 0.120286405
0000b0 d2 53 83 3e 44 5b 2b 3e a6 1f 9c 3e d7 60 2d 3e
       0.25649887 0.16734034 0.30492896 0.16931473
0000c0 b8 4c b5 3e 59 fe e3 be e4 79 d8 be 73 8d e6 be
       0.35410094 -0.4452999 -0.42280495 -0.45029792
0000d0 31 9c 98 bc b1 d6 33 be b5 fc 07 bc f9 a5 a0 3e
       -0.018629165 -0.17562367 -0.008299996 0.31376627
0000e0 ec c9 34 bf 39 e8 6b bf a4 c5 46 bf d0 93 f3 be
       -0.7062061 -0.9215122 -0.77645326 -0.4757371
0000f0 c9 cb da be 92 af 83 3c ad a9 69 3f
       -0.427336 0.01607493 0.9127453

bias f4 [3]
000000 65 49 42 3f 8a 91 56 3f 8f d5 90 3f
       0.7589324 0.83815825 1.1315173

weight f4 [3, 3, 3]
000000 0c ac 0f 3e 4c da 47 3d e1 97 d8 3d 27 ea 9d be
       0.14030474 0.04879217 0.105758436 -0.30842707
000010 4b 86 f4 be 87 81 ed be 9c 72 16 bd e9 5f 44 be
       -0.47758707 -0.46387884 -0.036730394 -0.19177212
000020 8b bf 89 3c 30 88 fb 3d cd 6f 66 3d db 1d 3f be
       0.016814968 0.12281835 0.056258965 -0.18663733
000030 dd e1 c3 bd 03 7f 21 be 18 26 22 3e a5 a6 50 3f
       -0.095645644 -0.15771107 0.15834844 0.8150428
000040 1d d3 f1 3e db b1 91 bc c4 3f 34 3f 2e b0 2b 3f
       0.4723138 -0.017785003 0.704098 0.67065704
000050 e5 77 24 3f 3e 29 8e 3f df e9 53 3f 7c 5d 78 3f
       0.64245445 1.1106336 0.82778734 0.97017646
000060 1d 38 47 bd bd 84 35 3e 16 98 07 3f
       -0.0486375 0.17726417 0.5296644

bias f4 [3]
000000 c0 35 53 bf b9 cf 79 bf 0a 11 a9 bf
       -0.8250389 -0.97582585 -1.3208325

weight f4 [1, 3, 3]
000000 46 07 12 bd 11 ff 62 3e a2 2b d5 bd c5 8b 39 3e
       -0.035651468 0.22167613 -0.10408713 0.18119724
000010 ed b5 1f 3d 20 90 c2 be 07 1c 4a 3f b0 a2 42 3f
       0.038991857 -0.38000584 0.78949016 0.7602949
000020 d4 6f 4c 3f
       0.79858136

weight f4 [3, 3, 5]
000000 97 b5 e3 bc 21 44 2a be 7c 08 00 be f0 78 d9 3d
       -0.02779655 -0.16627552 -0.12503237 0.1061877
000010 21 b5 16 3d b6 7c 01 bd 5e f2 3c be ac 19 84 bd
       0.03679383 -0.031613074 -0.1845183 -0.06450209
000020 c3 d0 b8 bd 87 d9 32 bd 2f f1 d3 be 0e 54 d4 be
       -0.09024193 -0.04366448 -0.41394946 -0.4147038
000030 86 9a a8 be e0 55 d8 bd 5c 2f 00 3e f9 b5 ee 3d
       -0.32930392 -0.10563254 0.12518066 0.11655802
000040 4f 09 6a 3d c6 58 04 be fa ae 1c 3e 4e 3d 14 be
       0.057137784 -0.1292449 0.15301123 -0.14476511
000050 cc 76 a0 3e 50 a7 3e be dd c1 f9 bd e5 9c d0 bd
       0.31340635 -0.18618512 -0.121951796 -0.10186175
000060 8e e2 b1 bd f2 54 48 be 06 71 4b be 93 7a 56 3e
       -0.0868579 -0.19563654 -0.19867334 0.20945196
000070 14 35 98 3e 88 ca 3a 3f ea 92 1f bf a1 05 e1 be
       0.29727995 0.7296529 -0.6233355 -0.43949607
000080 1c 42 f5 be 51 b3 3e be a1 b6 0c bf ed 64 f0 be
       -0.47902 -0.18623091 -0.5496617 -0.46952
000090 77 81 8a be 5e 9f 5b bf ae 13 12 bf 0d 24 6d bf
       -0.270519 -0.8579005 -0.5706128 -0.92633134
0000a0 2c a1 61 be 86 b4 a8 bd 11 89 77 be 6f 18 08 bf
       -0.22034138 -0.08237557 -0.2417338 -0.5316228
0000b0 ce 55 10 bf
       -0.5638093

bias f4 [3]
000000 46 8d 57 bf 36 d4 93 bf ea a1 a2 3f
       -0.8419994 -1.1549137 1.2705662

weight f4 [1, 3, 5]
000000 4c ba 30 3e 8d da 42 3e b3 fd 05 3e f3 e0 59 3e
       0.17258567 0.19028683 0.1308506 0.21277218
000010 31 fa ae 3d 40 1e 28 be bd 6c e9 bd 93 3a 4d 3e
       0.08543814 -0.1641779 -0.11397693 0.20041876
000020 5d d0 4b 3d a3 12 e2 be 41 82 8d be 15 27 03 bf
       0.049759258 -0.44154844 -0.27638438 -0.5123151
000030 c7 b3 10 bf 88 51 12 bf e4 fb 73 bf
       -0.5652432 -0.57155657 -0.9530623

weight f4 [3, 3, 7]
000000 3e b2 07 bf dd 20 f2 be 0e 5b ef be 29 d5 b6 be
       -0.5300635 -0.47290698 -0.46749157 -0.35709503
000010 02 ac a6 be 1b d1 8e be a5 5c c0 be 19 4a 73 be
       -0.32553107 -0.2789391 -0.37570682 -0.23758735
000020 85 fb ea 3d 0b 8d 8e be dd 2c aa be a5 62 97 be
       0.11473755 -0.27841982 -0.33237353 -0.29567447
000030 c7 cd bb be 72 0d 1c be cf cc 76 be 98 5d 07 be
       -0.36680433 -0.15239504 -0.24101566 -0.13219297
000040 70 c2 1f 3e af de 5a be 0a 18 a9 be ba 35 76 be
       0.15601516 -0.2137401 -0.33026153 -0.24043933
000050 33 48 4e be b3 1b 01 bf c9 e5 cd be 38 ce f9 be
       -0.2014473 -0.5043289 -0.40214375 -0.48790145
000060 53 c0 4a be 9f 24 eb be 2a 37 43 be 81 85 a7 be
       -0.19799928 -0.45926377 -0.19064012 -0.32719043
000070 e8 fa 48 3e 4b d8 98 3e b4 cc eb bb 97 6e 05 3d
       0.19626963 0.29852518 -0.0071960334 0.03257617
000080 cc 4a 56 be c7 1d 9a bd 21 bb 24 be 00 fb a4 be
       -0.2092697 -0.07525211 -0.16087009 -0.32222748
000090 40 0f 4e be 32 ed 13 be 3c 4f 9e be 16 21 fa bd
       -0.20123005 -0.14445952 -0.30919826 -0.12213342
0000a0 7f ee bb bd de a9 c3 be fc 9c 17 3d 36 ee 52 3e
       -0.09176349 -0.38215536 0.037014946 0.20598683
0000b0 13 d6 4b 39 d3 00 4b 3e 5d c1 85 3c 03 ab 09 3c
       0.00019439337 0.19824533 0.016327554 0.008402589
0000c0 ab 59 b4 bd 4a 3a 2e be ec 78 16 bd 0f 8b 08 be
       -0.08806165 -0.17014423 -0.036736414 -0.13334297
0000d0 f4 fc fc 3d 01 c6 67 3d bf 41 5f bc 87 b0 5e 3e
       0.123529345 0.056585316 -0.013626515 0.21747027
0000e0 f3 0a 15 bf 86 2e 0d bf d4 3d 06 bf 73 09 1f bf
       -0.5821983 -0.55149114 -0.5243809 -0.62123793
0000f0 db cc 0c bf 3a e2 c4 be 25 f7 b9 be
       -0.55000085 -0.38453847 -0.3632137

bias f4 [3]
000000 5c 32 99 bf 0e d0 79 bf e3 79 33 3f
       -1.1968493 -0.9758309 0.7010786

weight f4 [3, 3, 3]
000000 8b a3 bf be 63 75 c8 be fd 7f e4 be 3b 58 23 3d
       -0.3742946 -0.3915206 -0.44628897 0.039879065
000010 54 78 eb 3e 60 d0 4b be 42 29 06 be b4 19 56 3e
       0.4599024 -0.19903708 -0.13101676 0.20908242
000020 28 a2 31 bd 1e 32 70 3c 99 20 57 bc 2e 49 33 bd
       -0.043367535 0.014660386 -0.0131303305 -0.04377096
000030 89 d9 db bc b8 fa 61 be 64 48 b5 bd cd b4 3a 3d
       -0.026837127 -0.22068298 -0.08851698 0.04558258
000040 1d 29 91 3d de fa 9c bd 50 6f 06 3e 8a f9 fc bc
       0.0708792 -0.076650366 0.131284 -0.030880708
000050 74 09 61 3c 76 9e c4 be 46 47 33 be 07 54 af 3d
       0.013735164 -0.38402146 -0.17507657 0.08560949
000060 00 9f 80 3d 3a 59 20 be 1f f3 52 3d
       0.06280327 -0.15659037 0.05150139

bias f4 [3]
000000 60 ed b4 3e b6 b4 56 3e 19 5d d0 3e
       0.35337353 0.20967373 0.40696028

weight f4 [1, 3, 3]
000000 88 f2 2f be 0f 81 52 be 6e ec b2 bd 37 ce a0 be
       -0.17182362 -0.20557044 -0.08736502 -0.3140733
000010 61 39 39 3d ae 15 8b be 61 b4 84 be ed 50 0d be
       0.045220736 -0.27164978 -0.25918868 -0.13800402
000020 3f 1c 8b be
       -0.27169988
